…
2021-08-13T12:42:46 | INFO | mmf.trainers.mmf_trainer : Loading optimizer
2021-08-13T12:42:46 | INFO | mmf.trainers.mmf_trainer : Loading metrics
2021-08-13T12:42:46 | INFO | mmf.trainers.core.device : Using PyTorch DistributedDataParallel
2021-08-13T12:42:46 | INFO | mmf.trainers.mmf_trainer : ===== Model =====
2021-08-13T12:42:46 | INFO | mmf.trainers.mmf_trainer : DistributedDataParallel(
  (module): MMBT(
    (model): MMBTForClassification(
      (bert): MMBTBase(
        (mmbt): MMBTModel(
          (transformer): BertModelJit(
            (embeddings): BertEmbeddingsJit(
              (word_embeddings): Embedding(30522, 768, padding_idx=0)
              (position_embeddings): Embedding(512, 768)
              (token_type_embeddings): Embedding(2, 768)
              (LayerNorm): LayerNorm((768,), eps=1e-12, elementwise_affine=True)
              (dropout): Dropout(p=0.1, inplace=False)
            )
            (encoder): BertEncoderJit(
              (layer): ModuleList(
                (0): BertLayerJit(
                  (attention): BertAttentionJit(
                    (self): BertSelfAttentionJit(
                      (query): Linear(in_features=768, out_features=768, bias=True)
                      (key): Linear(in_features=768, out_features=768, bias=True)
                      (value): Linear(in_features=768, out_features=768, bias=True)
                      (dropout): Dropout(p=0.1, inplace=False)
                    )
                    (output): BertSelfOutput(
                      (dense): Linear(in_features=768, out_features=768, bias=True)
                      (LayerNorm): LayerNorm((768,), eps=1e-12, elementwise_affine=True)
                      (dropout): Dropout(p=0.1, inplace=False)
                    )
                  )
                  (intermediate): BertIntermediate(
                    (dense): Linear(in_features=768, out_features=3072, bias=True)
                  )
                  (output): BertOutput(
                    (dense): Linear(in_features=3072, out_features=768, bias=True)
                    (LayerNorm): LayerNorm((768,), eps=1e-12, elementwise_affine=True)
                    (dropout): Dropout(p=0.1, inplace=False)
                  )
                )
                (1): BertLayerJit(
                  (attention): BertAttentionJit(
                    (self): BertSelfAttentionJit(
                      (query): Linear(in_features=768, out_features=768, bias=True)
                      (key): Linear(in_features=768, out_features=768, bias=True)
                      (value): Linear(in_features=768, out_features=768, bias=True)
                      (dropout): Dropout(p=0.1, inplace=False)
                    )
                    (output): BertSelfOutput(
                      (dense): Linear(in_features=768, out_features=768, bias=True)
                      (LayerNorm): LayerNorm((768,), eps=1e-12, elementwise_affine=True)
                      (dropout): Dropout(p=0.1, inplace=False)
                    )
                  )
                  (intermediate): BertIntermediate(
                    (dense): Linear(in_features=768, out_features=3072, bias=True)
                  )
                  (output): BertOutput(
                    (dense): Linear(in_features=3072, out_features=768, bias=True)
                    (LayerNorm): LayerNorm((768,), eps=1e-12, elementwise_affine=True)
                    (dropout): Dropout(p=0.1, inplace=False)
                  )
                )
                (2): BertLayerJit(
                  (attention): BertAttentionJit(
                    (self): BertSelfAttentionJit(
                      (query): Linear(in_features=768, out_features=768, bias=True)
                      (key): Linear(in_features=768, out_features=768, bias=True)
                      (value): Linear(in_features=768, out_features=768, bias=True)
                      (dropout): Dropout(p=0.1, inplace=False)
                    )
                    (output): BertSelfOutput(
                      (dense): Linear(in_features=768, out_features=768, bias=True)
                      (LayerNorm): LayerNorm((768,), eps=1e-12, elementwise_affine=True)
                      (dropout): Dropout(p=0.1, inplace=False)
                    )
                  )
                  (intermediate): BertIntermediate(
                    (dense): Linear(in_features=768, out_features=3072, bias=True)
                  )
                  (output): BertOutput(
                    (dense): Linear(in_features=3072, out_features=768, bias=True)
                    (LayerNorm): LayerNorm((768,), eps=1e-12, elementwise_affine=True)
                    (dropout): Dropout(p=0.1, inplace=False)
                  )
                )
                (3): BertLayerJit(
                  (attention): BertAttentionJit(
                    (self): BertSelfAttentionJit(
                      (query): Linear(in_features=768, out_features=768, bias=True)
                      (key): Linear(in_features=768, out_features=768, bias=True)
                      (value): Linear(in_features=768, out_features=768, bias=True)
                      (dropout): Dropout(p=0.1, inplace=False)
                    )
                    (output): BertSelfOutput(
                      (dense): Linear(in_features=768, out_features=768, bias=True)
                      (LayerNorm): LayerNorm((768,), eps=1e-12, elementwise_affine=True)
                      (dropout): Dropout(p=0.1, inplace=False)
                    )
                  )
                  (intermediate): BertIntermediate(
                    (dense): Linear(in_features=768, out_features=3072, bias=True)
                  )
                  (output): BertOutput(
                    (dense): Linear(in_features=3072, out_features=768, bias=True)
                    (LayerNorm): LayerNorm((768,), eps=1e-12, elementwise_affine=True)
                    (dropout): Dropout(p=0.1, inplace=False)
                  )
                )
                (4): BertLayerJit(
                  (attention): BertAttentionJit(
                    (self): BertSelfAttentionJit(
                      (query): Linear(in_features=768, out_features=768, bias=True)
                      (key): Linear(in_features=768, out_features=768, bias=True)
                      (value): Linear(in_features=768, out_features=768, bias=True)
                      (dropout): Dropout(p=0.1, inplace=False)
                    )
                    (output): BertSelfOutput(
                      (dense): Linear(in_features=768, out_features=768, bias=True)
                      (LayerNorm): LayerNorm((768,), eps=1e-12, elementwise_affine=True)
                      (dropout): Dropout(p=0.1, inplace=False)
                    )
                  )
                  (intermediate): BertIntermediate(
                    (dense): Linear(in_features=768, out_features=3072, bias=True)
                  )
                  (output): BertOutput(
                    (dense): Linear(in_features=3072, out_features=768, bias=True)
                    (LayerNorm): LayerNorm((768,), eps=1e-12, elementwise_affine=True)
                    (dropout): Dropout(p=0.1, inplace=False)
                  )
                )
                (5): BertLayerJit(
                  (attention): BertAttentionJit(
                    (self): BertSelfAttentionJit(
                      (query): Linear(in_features=768, out_features=768, bias=True)
                      (key): Linear(in_features=768, out_features=768, bias=True)
                      (value): Linear(in_features=768, out_features=768, bias=True)
                      (dropout): Dropout(p=0.1, inplace=False)
                    )
                    (output): BertSelfOutput(
                      (dense): Linear(in_features=768, out_features=768, bias=True)
                      (LayerNorm): LayerNorm((768,), eps=1e-12, elementwise_affine=True)
                      (dropout): Dropout(p=0.1, inplace=False)
                    )
                  )
                  (intermediate): BertIntermediate(
                    (dense): Linear(in_features=768, out_features=3072, bias=True)
                  )
                  (output): BertOutput(
                    (dense): Linear(in_features=3072, out_features=768, bias=True)
                    (LayerNorm): LayerNorm((768,), eps=1e-12, elementwise_affine=True)
                    (dropout): Dropout(p=0.1, inplace=False)
                  )
                )
                (6): BertLayerJit(
                  (attention): BertAttentionJit(
                    (self): BertSelfAttentionJit(
                      (query): Linear(in_features=768, out_features=768, bias=True)
                      (key): Linear(in_features=768, out_features=768, bias=True)
                      (value): Linear(in_features=768, out_features=768, bias=True)
                      (dropout): Dropout(p=0.1, inplace=False)
                    )
                    (output): BertSelfOutput(
                      (dense): Linear(in_features=768, out_features=768, bias=True)
                      (LayerNorm): LayerNorm((768,), eps=1e-12, elementwise_affine=True)
                      (dropout): Dropout(p=0.1, inplace=False)
                    )
                  )
                  (intermediate): BertIntermediate(
                    (dense): Linear(in_features=768, out_features=3072, bias=True)
                  )
                  (output): BertOutput(
                    (dense): Linear(in_features=3072, out_features=768, bias=True)
                    (LayerNorm): LayerNorm((768,), eps=1e-12, elementwise_affine=True)
                    (dropout): Dropout(p=0.1, inplace=False)
                  )
                )
                (7): BertLayerJit(
                  (attention): BertAttentionJit(
                    (self): BertSelfAttentionJit(
                      (query): Linear(in_features=768, out_features=768, bias=True)
                      (key): Linear(in_features=768, out_features=768, bias=True)
                      (value): Linear(in_features=768, out_features=768, bias=True)
                      (dropout): Dropout(p=0.1, inplace=False)
                    )
                    (output): BertSelfOutput(
                      (dense): Linear(in_features=768, out_features=768, bias=True)
                      (LayerNorm): LayerNorm((768,), eps=1e-12, elementwise_affine=True)
                      (dropout): Dropout(p=0.1, inplace=False)
                    )
                  )
                  (intermediate): BertIntermediate(
                    (dense): Linear(in_features=768, out_features=3072, bias=True)
                  )
                  (output): BertOutput(
                    (dense): Linear(in_features=3072, out_features=768, bias=True)
                    (LayerNorm): LayerNorm((768,), eps=1e-12, elementwise_affine=True)
                    (dropout): Dropout(p=0.1, inplace=False)
                  )
                )
                (8): BertLayerJit(
                  (attention): BertAttentionJit(
                    (self): BertSelfAttentionJit(
                      (query): Linear(in_features=768, out_features=768, bias=True)
                      (key): Linear(in_features=768, out_features=768, bias=True)
                      (value): Linear(in_features=768, out_features=768, bias=True)
                      (dropout): Dropout(p=0.1, inplace=False)
                    )
                    (output): BertSelfOutput(
                      (dense): Linear(in_features=768, out_features=768, bias=True)
                      (LayerNorm): LayerNorm((768,), eps=1e-12, elementwise_affine=True)
                      (dropout): Dropout(p=0.1, inplace=False)
                    )
                  )
                  (intermediate): BertIntermediate(
                    (dense): Linear(in_features=768, out_features=3072, bias=True)
                  )
                  (output): BertOutput(
                    (dense): Linear(in_features=3072, out_features=768, bias=True)
                    (LayerNorm): LayerNorm((768,), eps=1e-12, elementwise_affine=True)
                    (dropout): Dropout(p=0.1, inplace=False)
                  )
                )
                (9): BertLayerJit(
                  (attention): BertAttentionJit(
                    (self): BertSelfAttentionJit(
                      (query): Linear(in_features=768, out_features=768, bias=True)
                      (key): Linear(in_features=768, out_features=768, bias=True)
                      (value): Linear(in_features=768, out_features=768, bias=True)
                      (dropout): Dropout(p=0.1, inplace=False)
                    )
                    (output): BertSelfOutput(
                      (dense): Linear(in_features=768, out_features=768, bias=True)
                      (LayerNorm): LayerNorm((768,), eps=1e-12, elementwise_affine=True)
                      (dropout): Dropout(p=0.1, inplace=False)
                    )
                  )
                  (intermediate): BertIntermediate(
                    (dense): Linear(in_features=768, out_features=3072, bias=True)
                  )
                  (output): BertOutput(
                    (dense): Linear(in_features=3072, out_features=768, bias=True)
                    (LayerNorm): LayerNorm((768,), eps=1e-12, elementwise_affine=True)
                    (dropout): Dropout(p=0.1, inplace=False)
                  )
                )
                (10): BertLayerJit(
                  (attention): BertAttentionJit(
                    (self): BertSelfAttentionJit(
                      (query): Linear(in_features=768, out_features=768, bias=True)
                      (key): Linear(in_features=768, out_features=768, bias=True)
                      (value): Linear(in_features=768, out_features=768, bias=True)
                      (dropout): Dropout(p=0.1, inplace=False)
                    )
                    (output): BertSelfOutput(
                      (dense): Linear(in_features=768, out_features=768, bias=True)
                      (LayerNorm): LayerNorm((768,), eps=1e-12, elementwise_affine=True)
                      (dropout): Dropout(p=0.1, inplace=False)
                    )
                  )
                  (intermediate): BertIntermediate(
                    (dense): Linear(in_features=768, out_features=3072, bias=True)
                  )
                  (output): BertOutput(
                    (dense): Linear(in_features=3072, out_features=768, bias=True)
                    (LayerNorm): LayerNorm((768,), eps=1e-12, elementwise_affine=True)
                    (dropout): Dropout(p=0.1, inplace=False)
                  )
                )
                (11): BertLayerJit(
                  (attention): BertAttentionJit(
                    (self): BertSelfAttentionJit(
                      (query): Linear(in_features=768, out_features=768, bias=True)
                      (key): Linear(in_features=768, out_features=768, bias=True)
                      (value): Linear(in_features=768, out_features=768, bias=True)
                      (dropout): Dropout(p=0.1, inplace=False)
                    )
                    (output): BertSelfOutput(
                      (dense): Linear(in_features=768, out_features=768, bias=True)
                      (LayerNorm): LayerNorm((768,), eps=1e-12, elementwise_affine=True)
                      (dropout): Dropout(p=0.1, inplace=False)
                    )
                  )
                  (intermediate): BertIntermediate(
                    (dense): Linear(in_features=768, out_features=3072, bias=True)
                  )
                  (output): BertOutput(
                    (dense): Linear(in_features=3072, out_features=768, bias=True)
                    (LayerNorm): LayerNorm((768,), eps=1e-12, elementwise_affine=True)
                    (dropout): Dropout(p=0.1, inplace=False)
                  )
                )
              )
            )
            (pooler): BertPooler(
              (dense): Linear(in_features=768, out_features=768, bias=True)
              (activation): Tanh()
            )
          )
          (modal_encoder): ModalEmbeddings(
            (encoder): FinetuneFasterRcnnFpnFc7(
              (lc): Linear(in_features=2048, out_features=2048, bias=True)
            )
            (proj_embeddings): Linear(in_features=2048, out_features=768, bias=True)
            (position_embeddings): Embedding(512, 768)
            (token_type_embeddings): Embedding(2, 768)
            (word_embeddings): Embedding(30522, 768, padding_idx=0)
            (LayerNorm): LayerNorm((768,), eps=1e-12, elementwise_affine=True)
            (dropout): Dropout(p=0.1, inplace=False)
          )
        )
      )
      (dropout): Dropout(p=0.1, inplace=False)
      (classifier): Sequential(
        (0): BertPredictionHeadTransform(
          (dense): Linear(in_features=768, out_features=768, bias=True)
          (LayerNorm): LayerNorm((768,), eps=1e-12, elementwise_affine=True)
        )
        (1): Linear(in_features=768, out_features=2, bias=True)
      )
    )
    (losses): Losses(
      (losses): ModuleList(
        (0): MMFLoss(
          (loss_criterion): CrossEntropyLoss(
            (loss_fn): CrossEntropyLoss()
          )
        )
      )
    )
  )
)
2021-08-13T12:42:46 | INFO | mmf.utils.general : Total Parameters: 115845890. Trained Parameters: 115845890
2021-08-13T12:42:46 | INFO | mmf.trainers.core.training_loop : Starting training...
…
